pytorch/best.pth (torch, 587491 bytes, 10 tensors)

weight f4 [32, 3, 5, 5]
000000 bb d3 3d 3d 4e f9 21 be 76 87 80 be 75 2d 15 be
       0.0463445 -0.15817758 -0.25103348 -0.14568122
000010 62 e9 f9 b8 27 8e d4 3c 16 bd c0 bd b8 91 7b bd
       -0.00011916716 0.02594669 -0.09411065 -0.061418265
000020 62 b4 c4 3d 2b 13 51 be bd cb d6 bc e9 e4 70 bc
       0.09604718 -0.20417468 -0.026220197 -0.014703014
000030 72 d1 01 3e 39 b0 16 3e f1 71 6a be 39 b8 ef bd
       0.12677553 0.14715661 -0.22895028 -0.117050596
000040 1f b2 22 bc db 82 3c bd 23 5d 31 3d 81 a1 51 3e
       -0.009930163 -0.04602323 0.043301713 0.20471765
000050 a5 b0 2a 3e 2b 8f 27 3e 4e 90 28 be d8 96 32 3d
       0.16668947 0.16363208 -0.16461298 0.043600887
000060 62 d2 a7 3d f9 2d 77 bd 7b eb 8e 3d e8 e2 0b be
       0.08194424 -0.060346577 0.06978508 -0.13660777
000070 5b a0 43 3c b7 a3 13 bb 34 06 46 bd ab e2 81 3d
       0.011940087 -0.0022528002 -0.04834576 0.063420616
000080 e7 5e 02 3e aa 0a 03 3e 4f 1a 1b be 40 bf 22 3d
       0.12731515 0.12797037 -0.15146755 0.03973317
000090 7c 9b c9 bc 6b 19 3e bd be 72 23 3e 37 a5 0d be
       -0.024610274 -0.04641096 0.1596174 -0.13832556
0000a0 7d 09 21 be 85 6c 45 be fc ac 99 bd dd 45 fe 3d
       -0.15726276 -0.19279678 -0.07503697 0.12415669
0000b0 5f df 60 3e 8c 04 14 bd a6 da d8 bd 5d f6 10 be
       0.2196021 -0.03613715 -0.10588579 -0.1415648
0000c0 f2 45 03 be dd 10 dc 3d 7e c9 c7 39 06 87 f4 3a
       -0.12819651 0.10745404 0.0003810636 0.0018655963
0000d0 51 cd 6b bd d0 e8 47 bd de 83 82 3d 34 73 02 3e
       -0.05756885 -0.04880601 0.06372808 0.12739259
0000e0 6f ca ef 3d 47 57 ab 3d 21 a7 f2 3d a9 ed f6 3c
       0.11708533 0.08366256 0.118482836 0.030142622
0000f0 b8 27 b6 bd c6 8e c9 bd 6c ea 19 3e 7b c3 55 3e
       -0.088942945 -0.09841685 0.15030831 0.20875351
000100 d1 55 0c 3c b3 09 e3 bc 4b 20 cf 3c 81 1a 3c 3d
       0.008565382 -0.027714586 0.025283953 0.045923714
000110 90 13 5f 3d 15 aa 72 3e b6 96 d5 3d e2 b4 43 3d
       0.054462016 0.23697694 0.104291365 0.047779925
000120 58 67 4c be 96 40 bf bd f4 11 0a 3e 32 1d 9d 3e
       -0.19961298 -0.09338491 0.13483411 0.30686337
000130 6c 47 4e 3e 97 42 1c 3d b9 5e 4d 3d a3 2f 86 bd
       0.20144433 0.038149443 0.050139163 -0.06552055
000140 c4 7a 57 3e 86 33 6c 3e 3c a7 a6 3c db 12 a6 bc
       0.21042925 0.2306653 0.020343415 -0.020272663
000150 eb 29 2f 3b 8f 2b c6 3e ed 7e 5c 3e 33 82 d2 3d
       0.0026727866 0.38705108 0.21532793 0.1027874
000160 99 b0 e3 3d f7 74 88 bc bd 56 75 3e 72 92 ff 3d
       0.11117668 -0.016657336 0.2395887 0.12479104
000170 29 f6 c3 3a 70 c4 06 3e 89 d2 57 bd eb 9e 38 3e
       0.0014950681 0.13160872 -0.052691016 0.18029372
000180 9a ea 96 3d eb 32 aa bd 7e ca c5 bc 69 eb d7 bd
       0.073689654 -0.08310493 -0.024144407 -0.10542948
000190 d5 8c 5a bd 83 aa 65 be 4f 28 93 be 00 70 ac bd
       -0.053356964 -0.22428326 -0.2874169 -0.084198
0001a0 f7 7b c3 bc db 95 3d 3c de a2 83 be 12 a4 b4 be
       -0.023862822 0.011571373 -0.25710195 -0.35281426
0001b0 5f ce 9f bc a8 64 aa 3b ad ed 75 3d 24 81 9f bd
       -0.019507585 0.0051999874 0.06004112 -0.077883035
0001c0 08 bf 9f be 6e 42 22 be 58 74 e3 bd 78 c2 6a 3d
       -0.31200433 -0.15845653 -0.11106175 0.057314366
0001d0 74 31 03 be 13 95 3b be e8 21 31 be 30 7a 47 3d
       -0.12811834 -0.18318586 -0.1729809 0.04870051
0001e0 29 13 41 bc 6f 7e 4a be c8 b2 12 be 6e 5c 95 bd
       -0.011784353 -0.19774793 -0.14326012 -0.0729302
0001f0 6f e9 e2 3d 6d 6e 96 3d 20 77 3f be e6 49 9c bd
       0.1107968 0.07345281 -0.18697786 -0.076312825
000200 1f 88 b7 3d 38 86 81 bd e3 cc c9 3d 5b 3f cb bd
       0.0896151 -0.06324428 0.09853532 -0.099241935
000210 fb c7 83 be 9f 32 a0 3d 71 4c 35 3d 4d 75 91 bd
       -0.2573851 0.07822155 0.044262353 -0.071024515
000220 8f 5c 5e be 8b 56 57 be fa d4 bf bd f6 23 6e bd
       -0.21714996 -0.21029107 -0.09366794 -0.058139764
000230 1d 60 6d bd 15 b0 47 be fb c1 75 be cd 5a 5f bd
       -0.05795299 -0.19500764 -0.23999779 -0.054529954
000240 61 b4 c6 3d e2 0d 30 3e ef f4 01 be c9 d4 ac 3d
       0.09702373 0.17192796 -0.12691091 0.08439023
000250 c7 a7 27 3e 88 39 df bc 1c d6 37 3d c8 97 75 3d
       0.16372596 -0.027249113 0.044881925 0.059959203
000260 73 07 10 3e 04 b9 10 bd 6d d0 4d bd fb ec 8f 3d
       0.14065342 -0.035332695 -0.0502476 0.07027622
000270 12 e6 06 3e ac 0a 2d 3e 08 7e 43 bc 24 aa ba 3b
       0.13173702 0.16898602 -0.011931904 0.005696552
000280 f7 79 1f bc 17 b1 f4 3c 27 28 b7 3d 6a 8f 28 be
       -0.0097336685 0.0298696 0.08943205 -0.16460958
000290 af a1 d2 bc 5c 7e 46 3b 56 05 8c 3c 76 f4 9d bd
       -0.025711862 0.0030287718 0.017092388 -0.07712643
0002a0 5a 08 86 be b5 c7 ae bd 44 eb 75 bd 68 ed a2 3d
       -0.26178247 -0.08534185 -0.06003882 0.07955438
0002b0 98 60 58 be b0 e7 bd 3c 0f f9 b9 3d 02 e0 c7 bd
       -0.21130598 0.023181766 0.09080707 -0.09759523
0002c0 81 c3 de bc 35 51 0e 3e 55 dc e4 bd 85 96 b3 bd
       -0.027192833 0.13898166 -0.111748375 -0.08768944
0002d0 89 b7 1a 3d f9 7c 35 3e fa 46 d5 3d 10 3f 09 be
       0.03777269 0.17723455 0.10413928 -0.13402963
0002e0 3d 24 59 be a2 bc 3f 3e f7 f0 6c 3e 75 b3 8b bd
       -0.2120523 0.18724301 0.23138796 -0.06821338
0002f0 08 ff 03 be 4d 49 6a be 63 fc 64 3e 4b 99 5d 3e
       -0.12890255 -0.22879525 0.22361903 0.21640508
000300 99 6c dd bd 32 b3 7e be 71 d8 40 bc 03 59 57 3d
       -0.10811729 -0.24873045 -0.011770354 0.052575123
000310 e8 64 03 bd 04 8b 04 be 93 1b 52 be 66 29 2e bd
       -0.032078654 -0.12943655 -0.20518331 -0.04251995
000320 95 d1 19 be 3f 72 2b 3d 17 6c 1b 3e 5f 77 f6 bd
       -0.15021355 0.041857 0.15177952 -0.12034487
000330 51 95 a5 bd 7c ca 9c 3d ae 77 58 3e 43 06 cc 3d
       -0.080851205 0.07655808 0.21139404 0.09962132
000340 34 57 3a be cc 23 3f be b6 d2 eb 3d b5 6d 8a 3e
       -0.18197328 -0.18665999 0.11514799 0.27036825
000350 90 91 1a bd 0b 31 c4 bd 40 a3 37 be c9 cc 5b 3e
       -0.037736475 -0.09579667 -0.17933369 0.21464838
000360 31 36 95 3d 8a e5 bf 3d 09 53 d2 bd 0d fc 5c 3d
       0.07285727 0.09369953 -0.10269744 0.05395131
000370 2b 9b 5b 3e 6b f3 bf 3d 22 11 d7 bd 75 70 e1 bc
       0.2144591 0.093726 -0.10501315 -0.027519444
000380 24 4b ec 3d 3b 0a 2a 3e fd 8a 70 3e 21 ed 70 3e
       0.115377694 0.16605465 0.2349052 0.23527957
000390 55 ba 6a 3e 89 24 06 3c 97 55 ef bd e6 68 0f 3d
       0.22922643 0.008187422 -0.11686247 0.03501215
0003a0 9e c0 32 bd 6c 21 09 3e 36 97 c8 3d 77 48 ae bd
       -0.043640725 0.13391656 0.09794466 -0.08509915
0003b0 f3 d5 de bd ba 82 d1 bd 43 4d ed bd 96 35 17 3e
       -0.10880651 -0.10230012 -0.11587002 0.14766535
0003c0 66 3b 2f 3e fb 74 8c bb 48 a8 91 be 2c cb a5 be
       0.17112502 -0.004286406 -0.284487 -0.3238157
0003d0 1f 2a ed bd 4c 82 09 3e 72 ce 93 39 1d 61 32 bd
       -0.115802996 0.1342861 0.0002819184 -0.043549646
0003e0 dd af e8 bd 3f 17 d6 bd 1b 26 d4 3d ce e7 de 3c
       -0.11361668 -0.104536526 0.103588305 0.027210142
0003f0 8e 71 0a 3e a3 0b 4e 3e 45 ce e5 3c 78 6a 3e be
       0.1351988 0.20121627 0.028052459 -0.18595302

bias f4 [32]
000000 7a 38 6d bd b2 73 62 3e ea e5 e8 bd bf 31 b3 be
       -0.05791519 0.22114447 -0.113719776 -0.3499889
000010 53 1f b2 be bd dd 68 be e0 a5 ad bd 0c 5e a3 3e
       -0.34789523 -0.22740836 -0.08478904 0.3190769
000020 a7 92 aa bc de ef 86 bd 7a 9d cd 3e 40 d2 32 3a
       -0.020821882 -0.0658872 0.40159208 0.0006821491
000030 b3 26 03 3d 2c c9 22 bb 24 9c 07 be 00 f3 a9 be
       0.03201933 -0.0024839146 -0.13243157 -0.33193207
000040 43 34 8f bc ed cc 0a be fb 1a f3 be 73 42 db bd
       -0.017480975 -0.13554735 -0.47481522 -0.107060336
000050 8d fb 17 3e 69 c5 d5 bd 4b d9 0a bd a4 51 a3 3d
       0.14842053 -0.104380436 -0.033898633 0.07974556
000060 28 ef dc 3c a7 aa 86 3d 54 c6 32 bd 49 1f b8 3d
       0.026969507 0.06575518 -0.04364617 0.08990342
000070 e8 91 69 bc 83 d4 3d be 58 3e 6f be fa c1 01 bf
       -0.014255978 -0.18538098 -0.23363626 -0.5068661

weight f4 [32, 32, 5, 5]
000000 48 8b f4 bc 97 15 15 bd e5 48 74 3b fb 84 73 3a
       -0.02985157 -0.036397543 0.0037274894 0.000928953
000010 ca 49 04 bd 3f d0 19 bd b9 5c 21 bd d6 8a 94 bd
       -0.032296933 -0.037552115 -0.039395068 -0.07253043
000020 58 2f 4a 3d d7 29 6b bd b5 d9 3b 3d ab 7c ad bb
       0.049361557 -0.05741295 0.04586192 -0.0052944026
000030 88 96 0e bd e8 99 44 3d d8 fd 4c 3d 19 9c 04 3d
       -0.034811527 0.04799834 0.05004677 0.03237543
000040 c3 62 a3 3d 2b d6 8d bb fe 6d 34 bb 67 58 fc bb
       0.07977822 -0.0043285093 -0.002753138 -0.007700968
000050 e5 dc 53 bc 9a 44 9a 3d c6 f2 3f 3d e0 b7 60 bd
       -0.012931083 0.07532616 0.046862386 -0.054862857
000060 2a 55 cf ba 8a 8b af 3b d8 d2 88 bd 69 44 16 3a
       -0.0015818228 0.0053572105 -0.0668084 0.000573224
000070 6a f2 88 36 ce f2 a6 3d 65 d8 6d 3c 69 e2 18 bd
       4.0813366e-06 0.0815178 0.0145169245 -0.037325297
000080 1e de 8f 3c 74 a2 aa bc 22 74 b6 3c 68 70 78 3d
       0.017561968 -0.020829417 0.022272173 0.060654074
000090 45 07 53 3d ac 03 b1 3d bb 0e 7c 3d f2 d0 2e 3d
       0.051520605 0.086432785 0.061537486 0.042679735
0000a0 c0 83 fb bc c8 51 a3 3c 7e f5 4c 3c ff 7e 17 3d
       -0.030702472 0.019936457 0.012509702 0.036986347
0000b0 cb ac e5 b9 61 57 e8 bc ef 09 27 3a 30 1b 7b bd
       -0.00043807024 -0.028361978 0.00063720247 -0.061305225
0000c0 18 4c 67 bc 9d 50 bb bb 82 e6 4c bc 11 8d 03 bd
       -0.014117263 -0.005716397 -0.012506129 -0.032116953
0000d0 90 2c 0a 3d b6 f4 b3 3c f5 3d ad 3b cd 98 9e 3a
       0.033733904 0.021967273 0.005286927 0.0012099982
0000e0 89 16 6c bc 22 af 3c 3c 65 ef 4a 3d 06 ea 06 3d
       -0.01440967 0.011516364 0.04954471 0.032938026
0000f0 ac da c5 3b 12 a8 1f bd 2c e0 3c 3c e0 7b 4c bd
       0.0060380306 -0.038978644 0.011528056 -0.049922824
000100 2a fb a3 bc 55 a8 58 bd 1d 2c 43 bd f5 72 d6 bc
       -0.020017225 -0.05289491 -0.04764949 -0.026177863
000110 2a 27 f5 3b ca 62 29 bd e5 a9 1b bd 16 9f 06 bd
       0.0074814754 -0.04135398 -0.03800382 -0.03286656
000120 b4 ef af bc 33 fe f6 3c f0 3c 14 3d ed 8f 26 b9
       -0.021476604 0.030150509 0.036190927 -0.0001588461
000130 3f af ad 3c 1d 51 65 bd 96 e6 52 bd 9d c5 e7 bd
       0.021201728 -0.05598556 -0.051489435 -0.113169886
000140 c5 c3 0b 3e 05 f0 21 3e 15 1c fc 3d 26 58 06 3d
       0.13648899 0.15814216 0.12310044 0.03279891
000150 9b c9 0a bc 07 67 1d 3d 7f 5f 9a bb 5c a2 bd bc
       -0.008470918 0.038428333 -0.004711091 -0.023148708
000160 fc 27 ae bd 65 25 e0 bd bf 64 2b 3c ed 81 f8 bd
       -0.0850372 -0.109446324 0.010461031 -0.121341564
000170 15 a1 0f be 69 da 84 bd c7 fb 8a bc 46 b1 ef 3d
       -0.14026292 -0.06486971 -0.01696576 0.11703734
000180 2e 6b 90 3d 06 f2 ff 3c b3 fb b1 bc 43 52 1b bc
       0.07051693 0.031243335 -0.021726465 -0.009480062
000190 9c d6 5b bd 04 db 9f 3b 1e 3e 21 bc f1 b1 68 bd
       -0.053671464 0.0048784036 -0.00984147 -0.056810323
0001a0 f8 73 c4 bc f5 d0 8f 3c 26 71 2e 3c a0 be 0e bd
       -0.02398108 0.017555693 0.010647094 -0.034849763
0001b0 bc ef 55 bc 9c e5 0b 3c 25 16 8e 3d a1 c5 a4 bc
       -0.013057645 0.00853863 0.069378175 -0.020113768
0001c0 e8 ee b9 bc c2 51 5b bd 8e e2 14 3c 1a b5 8e bc
       -0.022696927 -0.053544767 0.009087218 -0.01742034
0001d0 fa e3 56 3c e1 4c a6 bc 3d c4 9f 3c ca b8 55 3c
       0.013115877 -0.02030033 0.019502753 0.013044545
0001e0 8b f4 62 3d d9 42 16 3d e3 b3 4a 3b b8 d9 2b bd
       0.055408996 0.036684845 0.0030929975 -0.04195568
0001f0 5f 2f 36 3a 6e c7 08 bd 5c 59 32 b8 ae 0c 73 bd
       0.0006949808 -0.033393316 -4.252173e-05 -0.059338264
000200 9e 69 09 3d 42 40 ae 3a 57 b9 c9 bd 1c 80 03 bd
       0.03354799 0.0013294297 -0.09849804 -0.032104596
000210 d8 44 4d bd d7 2e d3 bc 47 77 f3 3c 91 2d b4 bb
       -0.050114483 -0.02577917 0.029719962 -0.005498596
000220 8f d3 19 3b c5 bf 2e 3c c0 c8 67 3d 5c 0f 53 3c
       0.0023472046 0.010665839 0.056587934 0.01288208
000230 b7 54 f9 3c 9d 42 6d 3d 71 01 9c 3d 3e de b5 3d
       0.030435903 0.057924856 0.076174624 0.0888028
000240 48 2c 10 3d 4c b9 d0 bc a7 b5 3c bd 30 09 11 bd
       0.03519848 -0.025478981 -0.046071675 -0.035409153
000250 40 da 20 bd 30 ca d9 bd a7 79 df bc 37 12 0c bd
       -0.03927064 -0.10634267 -0.027279688 -0.03419706
000260 50 35 10 bb 34 b4 67 3d 49 57 ea 3c e4 f1 cf bc
       -0.0022004433 0.05656834 0.028606074 -0.025383897
000270 e6 e7 3d bd 28 71 1c bd 2b 5d 06 3d 0c fd dc 3c
       -0.046363734 -0.03819385 0.032803696 0.02697613
000280 13 c8 03 bd b2 99 0b bd c4 b2 97 3d 87 77 0a 3e
       -0.032173228 -0.034082122 0.07407144 0.13522159
000290 23 64 18 3d 20 82 c5 bc 06 32 79 3d 4d 55 2f 3d
       0.037204873 -0.0241099 0.06083872 0.04280596
0002a0 26 7a b3 3d a1 94 0e 3d 3b 76 a0 3d 80 25 81 3d
       0.08763532 0.034809712 0.07835051 0.06305981
0002b0 3e ad 20 bd 8b ea 50 bc c2 ec 40 3d 1b 61 1c bc
       -0.039227717 -0.012751232 0.04710079 -0.009544636
0002c0 4d 5e 53 bd 3a fc 28 bc 8a 5e 14 bb 65 e4 ae 3c
       -0.051603604 -0.010314042 -0.0022639357 0.021349141
0002d0 62 03 91 39 a5 8c e1 3b 3c f8 eb bc 0c 8b 7c 3d
       0.00027659076 0.006883221 -0.02880489 0.061656043
0002e0 dd 45 14 3d 0c b5 5c 3d c6 e0 36 3d 7a 37 68 3c
       0.03619944 0.053883597 0.044647954 0.014173383
0002f0 98 65 e4 3c 46 52 40 3c 09 63 a1 3d 56 8e 5a 3d
       0.027880475 0.0117383655 0.078802176 0.0533584
000300 c4 34 b9 3c 42 d1 ab bd 85 33 44 bc 46 9e 56 3c
       0.022608168 -0.08389522 -0.011975174 0.013099259
000310 a5 a5 a8 3c 35 5f 8f bb 37 86 11 bd ba 82 27 bd
       0.020586798 -0.0043753632 -0.035528388 -0.040896155
000320 42 e4 8d bc 9a 54 ff bc ab c0 d2 bb ac a2 b4 3d
       -0.017320756 -0.03116827 -0.006431659 0.0882009
000330 67 40 f1 3d 25 09 0a bd 66 04 8a bd 3c 66 20 bd
       0.11779862 -0.033700127 -0.0673912 -0.03916
000340 77 36 ec 3c 79 fd 41 3d 18 10 92 bc 11 32 bb 3c
       0.028834565 0.04736087 -0.01782994 0.022851022
000350 79 a5 07 3e d2 da 9b 3d 87 59 9c 3d 77 be 86 3d
       0.13246717 0.07610096 0.076342635 0.06579297
000360 a4 cd d9 3d 03 aa 9e 3d 6b c7 1b 3c d4 d4 b5 bc
       0.10634926 0.07747271 0.009507994 -0.02219621
000370 ac db 9a 3d 26 11 36 bd 57 65 0c bc 64 83 fa bb
       0.0756143 -0.044449948 -0.008569083 -0.0076450575
000380 19 37 90 bc 6d de 1a bd ca 8a bc 3b f0 17 14 bc
       -0.017604398 -0.037809778 0.0057538496 -0.00903891
000390 6d 14 c5 bd 5a 0c 1b bd e9 bf ee 3d 8e 77 6d 3d
       -0.096230365 -0.037853576 0.11657698 0.057975344
0003a0 69 d8 4e 3d 2a 80 2e 3a b2 f0 c8 bc 12 96 6f bd
       0.050499354 0.0006656671 -0.024528835 -0.058492728
0003b0 6c b9 8c 3c 21 bd 00 3d a0 cc 6d 3c 31 4b 9d bd
       0.01717826 0.031430367 0.014514118 -0.07680357
0003c0 3a 7f 09 3d a7 79 5f 3c e1 82 34 bd 41 8b 38 bd
       0.0335686 0.013639844 -0.04407013 -0.045054678
0003d0 e0 a2 8d bd 4f 83 2e 3c 4d 9c 95 bc fb ff 7e 3c
       -0.069158316 0.010651424 -0.018263007 0.01556396
0003e0 96 3f 98 bd a3 78 f1 3b 0c 4c 2c bd 2b 5a e5 bc
       -0.07434003 0.0073691173 -0.04206471 -0.027997097
0003f0 18 24 72 bc 27 b7 d6 bc 5d 2a 06 bc f9 a7 4e bc
       -0.014779113 -0.02621038 -0.008188811 -0.01261329

bias f4 [32]
000000 ee 2e dc bc 74 7f bb bd 79 c7 38 bd 0b 3f 2c be
       -0.026877847 -0.09155169 -0.045112107 -0.16820924
000010 0f 06 c8 3d 1b dd b1 bd 18 45 8f be ef d3 78 be
       0.097667806 -0.08684751 -0.27982402 -0.24299596
000020 f4 79 5e be b0 ab f6 bd 5d 6c 61 be b5 63 c2 bd
       -0.21726209 -0.120444655 -0.22013994 -0.09491674
000030 be 64 7f 3c 55 62 aa be fb 57 28 be 43 a3 9a bd
       0.015587984 -0.33278146 -0.16439812 -0.07550671
000040 e8 5c 0e be 4f bb 4c be 98 f0 bf bd 92 a8 48 be
       -0.13902628 -0.19993328 -0.093720615 -0.19595554
000050 cd 04 c5 bd 32 74 32 bd a4 5d 29 be 93 c2 12 be
       -0.09620056 -0.043567844 -0.16539627 -0.14332037
000060 81 78 7f be 69 d0 77 be 27 b9 81 3d be ca 2d be
       -0.24948312 -0.24200596 0.06334143 -0.16971871
000070 51 72 2b be be f4 51 be 10 9e 7c bc 96 a0 4c be
       -0.16742827 -0.20503518 -0.015418544 -0.19983134

weight f4 [64, 32, 5, 5]
000000 ad 90 a4 bc 53 ca 08 3d ff 0c 9f 3c ef 29 57 3c
       -0.020088518 0.033396076 0.019415377 0.013132556
000010 79 33 64 bd f4 4a 92 bd ae 8e 39 3d 6c cd 59 3a
       -0.05571315 -0.071432024 0.045302086 0.00083085033
000020 c7 1d 54 3d 28 49 2c 3d 1c 3e c5 ba c3 5a 48 3c
       0.05178621 0.042061955 -0.0015048417 0.0122286705
000030 f6 3a cf bc 8a 16 b6 3d b3 7f 9c 3d fc 9b b9 3c
       -0.02529667 0.08891018 0.07641544 0.022657387
000040 ed 42 13 bd a5 1f d1 bc 6b 21 cc bc 8f 41 31 ba
       -0.035952497 -0.025527785 -0.024918279 -0.0006761783
000050 77 7e bf 3c eb fe 02 bd 35 46 4b bd 4c 24 15 bc
       0.023375733 -0.03198139 -0.0496275 -0.009102892
000060 d2 59 62 3d 44 fc af 3c 59 1a 5c 3c 35 16 b8 bc
       0.05526144 0.021482594 0.013434016 -0.022471527
000070 de 8f f2 3c 21 88 f2 3c e8 43 2f bd 56 2d 5b 3c
       0.029609617 0.029605927 -0.04278937 0.013377508
000080 ba e1 91 bd 9b 53 ab bc 42 b5 93 bd c8 08 78 bc
       -0.07123132 -0.02091389 -0.072123066 -0.015138812
000090 9d c4 c9 bc 02 cb 2e bd 58 4a c5 bd 59 4a fe bc
       -0.024629885 -0.042674072 -0.096333206 -0.031041311
0000a0 52 f0 88 bc 83 8c bb 3c 18 c7 9a bd ee 5c 53 bd
       -0.016716156 0.02289415 -0.07557505 -0.051602297
0000b0 34 d1 72 bd 57 f3 fa 3c 20 1d 0f bc f1 b1 43 bd
       -0.059281543 0.030633612 -0.008734971 -0.04777712
0000c0 43 06 f9 b9 75 23 f0 3b 60 45 38 bd d0 a7 2f 3d
       -0.00047497646 0.0073284456 -0.044988036 0.042884648
0000d0 ca 84 08 bc 22 3a 47 ba 1b fd 36 3c d5 57 b1 3d
       -0.008332441 -0.000759991 0.0111687435 0.08659331
0000e0 92 ed 47 3c b5 54 1a bd a8 e4 7a 3d 74 63 6c 3d
       0.012202637 -0.03767844 0.06125322 0.057712033
0000f0 b5 5f 7c 3c 6c ff af 3d 40 76 2d 3c c9 f3 9f bb
       0.015403678 0.0859364 0.010587275 -0.0048813564
000100 7f 7a 3e 3d c5 46 44 bc 2d 53 05 bd 76 3a 10 bd
       0.04650354 -0.011979763 -0.032550026 -0.035212003
000110 73 9b c0 3d 9a c1 25 3d 22 0f d7 bc ab 20 69 bc
       0.094046496 0.040467836 -0.026252333 -0.01422898
000120 a6 9e 34 bc b9 6c 88 3c cf 7d a9 bd b1 55 1d bd
       -0.011024153 0.016653406 -0.08275949 -0.0384118
000130 72 4a c2 3d 1a 22 ac 3c dc 59 13 bc 3e 6c 42 bd
       0.094868556 0.021012355 -0.008993592 -0.04746651
000140 2e e9 55 3d 30 8a 64 3d 19 cc db 3c 3d 77 60 3d
       0.05222433 0.05579585 0.02683072 0.054801214
000150 a9 62 51 bd 30 70 a4 3c 79 ab 35 3d 7c 94 4b 3d
       -0.05111948 0.020073026 0.044352982 0.049702153
000160 e8 73 c6 bc c9 06 26 3c 69 18 a6 bb fc 6c 61 3c
       -0.02422519 0.010133454 -0.005068828 0.013758894
000170 cb f2 1f bd d9 d0 07 3d ef a0 47 bd 30 3c 76 bc
       -0.039049905 0.033158157 -0.048737463 -0.015028998
000180 47 c4 37 3c a4 29 c8 bc 35 d7 d9 bc 13 c6 dc 3c
       0.01121623 -0.024433918 -0.026591877 0.026949918
000190 aa d0 d2 bd b9 cd 15 3c 43 f9 93 bd d3 95 7f bd
       -0.10293706 0.009143286 -0.07225277 -0.062398743
0001a0 75 28 a5 bd c6 d6 82 bd af a9 e4 bb dd c8 3e 3c
       -0.08064357 -0.06388621 -0.0069782357 0.011644569
0001b0 ff 2d 2b 3d b9 b7 05 3d 14 51 5e bd 4f 28 7f ba
       0.041791912 0.032645915 -0.05427654 -0.00097334845
0001c0 a7 2b 19 3b ea ee 8e 3d 42 08 58 3d 16 9e fe bb
       0.0023371966 0.06979163 0.05274225 -0.00777031
0001d0 1c 61 1b 3d 51 35 cc 3d 17 3e d6 3d eb ad a7 3c
       0.037934408 0.09971107 0.104610614 0.020468673
0001e0 8b 1d 7c 3c de 8d 23 ba 99 32 b5 bd 75 cb 58 bd
       0.015387903 -0.00062390964 -0.08847541 -0.052928407
0001f0 73 42 8d bd 8d b8 68 bc bb 4e 72 3c da 45 bf bd
       -0.0689744 -0.014204157 0.014789279 -0.09339495
000200 38 a3 00 3d f3 30 49 3c ff 42 9a bc 3b 38 01 bc
       0.031405658 0.012279737 -0.018830774 -0.007886942
000210 e6 ce 0d bc d9 49 89 bd e9 ce 1b 3d 03 63 a7 bc
       -0.008655285 -0.067035384 0.03803912 -0.020432955
000220 24 df 2f bc 8a 71 33 3d 85 3c 91 3b 0c df 2d bd
       -0.010734353 0.04380945 0.0044322633 -0.042449042
000230 61 6e 03 3d 84 85 75 3d e2 e4 46 3d 44 0b 50 bc
       0.032087687 0.059941784 0.048558123 -0.012697998
000240 6a a1 d8 bd 09 3c d6 3c 5f 33 86 bd 0c e2 74 3c
       -0.10577662 0.026151674 -0.06552767 0.014946472
000250 d7 f1 b0 3d c2 73 85 3c 06 0c 60 3d a5 3c 2f bd
       0.08639877 0.01629055 0.054698966 -0.042782445
000260 8c 3d 8a 3d 80 8f 0d be 99 e4 5c bd 9d ab 04 bb
       0.067500204 -0.13824272 -0.053928945 -0.002024389
000270 f8 90 b2 bd 2f 37 60 bd 4f 77 ed bc 55 6b f5 3b
       -0.08719057 -0.054740127 -0.028987555 0.0074896016
000280 6e 16 cd 3c d5 9c 11 bd 1d c9 11 3d 30 dd aa 3c
       0.02503511 -0.035549957 0.035592187 0.020857424
000290 24 b0 47 bd c9 6f 9e 3c fb 57 c0 3d c7 a2 5f 3a
       -0.048751965 0.019340413 0.09391781 0.00085310306
0002a0 f8 08 19 bd 86 33 84 bd 69 84 75 bc 58 85 e9 3d
       -0.03736207 -0.0645514 -0.014985182 0.114023864
0002b0 25 29 b6 ba c3 fc 8b 3d 1e 21 20 3c 68 39 88 bb
       -0.001389776 0.0683532 0.009773521 -0.004157234
0002c0 22 a5 24 bd dc 61 10 3c c3 5c ac 3d 31 b2 27 bc
       -0.040196545 0.008812394 0.084161304 -0.010235355
0002d0 3a 33 44 bd 4d 99 06 bd dd 1b e6 3c 6f 32 22 3d
       -0.047900416 -0.032861043 0.028089458 0.03959888
0002e0 09 ad 1d 3d 36 fc c4 3a ef f6 8a 3b b6 a2 34 3d
       0.038495097 0.0015028778 0.0042408626 0.044100486
0002f0 85 be 9c 3d 6f bb ca 3d 7f 21 cf 3c 55 3f ff bc
       0.07653526 0.09899031 0.025284527 -0.031158129
000300 e5 f3 51 3d fc 10 36 bc a4 c7 99 3d f3 9d 3e bd
       0.051257987 -0.011112448 0.075087816 -0.04653735
000310 46 69 9a bc 99 24 14 bc ba ae 81 3c 29 d5 e5 3c
       -0.018849026 -0.009041929 0.015830386 0.028055744
000320 be 76 14 be a8 6a 8a 3d 00 6a ca 3c 4e 45 6f bc
       -0.14498422 0.06758624 0.024708748 -0.014603926
000330 bf d1 82 3c e6 74 97 bc 79 33 0e 3c 9e ec 05 3e
       0.015969155 -0.018488359 0.008679264 0.13078544
000340 1a 9a 99 3a 69 ae b8 3c 80 57 30 3d fb d3 68 3d
       0.00117189 0.022544103 0.043052197 0.056842785
000350 17 22 e7 bb 47 b0 89 3c 09 68 6e bd ff ab be 3b
       -0.0070536244 0.016807688 -0.058204684 0.0058188434
000360 3d f4 23 bd 66 6e 61 bc b8 7f 0a bd 69 53 61 bd
       -0.040027846 -0.013759231 -0.03381321 -0.055011187
000370 d5 d7 d3 bc 5d d3 e0 bd 5b 60 70 bd 8c 2b 92 bd
       -0.025859753 -0.10977814 -0.05868564 -0.07137212
000380 dc e5 8f 3b 17 e0 ca 3c 64 d9 f3 bc 52 22 09 3c
       0.004391415 0.024765057 -0.029766746 0.008369999
000390 c4 b2 45 bc 32 51 32 3d 89 5c f0 bc e7 f1 8b bd
       -0.012066547 0.043534465 -0.029341 -0.068332486
0003a0 29 32 b5 bd 93 6f 16 3d 93 df 2c bc 4b fd 40 bd
       -0.08847458 0.0367275 -0.010551351 -0.04711656
0003b0 72 0d 82 bd 19 cd 6d bb 0c 81 18 3d 45 7a fe 39
       -0.06350221 -0.0036285578 0.037232444 0.00048537753
0003c0 a0 6a 24 3c 76 1f d0 3c ad 4d 24 3c ca a9 56 bc
       0.010035187 0.025405627 0.010028285 -0.013102004
0003d0 ef e0 7b bc 87 cf 8f 3c 8e 3e 68 bd d1 ce 18 3d
       -0.015373453 0.017555011 -0.05670028 0.03730661
0003e0 f0 5f 37 bd 27 39 7c bc 3a 00 62 bc 0a 93 e4 bc
       -0.044769228 -0.015394486 -0.013793999 -0.027902145
0003f0 29 c9 03 be 45 38 be 3c fd 01 39 3d ee 93 1e bd
       -0.12869705 0.02322019 0.04516791 -0.038715295

bias f4 [64]
000000 a8 4b 77 bd 1e 7e da bd b2 63 db bd 54 8b b1 bc
       -0.060374886 -0.10668586 -0.10712375 -0.021672882
000010 d0 10 2f bd 79 e5 0b be c9 02 dd bd a5 3c f4 bd
       -0.042740643 -0.13661756 -0.10791547 -0.119256295
000020 4f b0 cf bd 22 0c db 3c 0c ac 8d bd 0f 36 3d be
       -0.1014105 0.026739184 -0.06917581 -0.18477653
000030 46 d9 64 bd cf 14 54 bd c2 5a f4 bd ea 7f 48 bd
       -0.05587127 -0.051777657 -0.11931373 -0.048950113
000040 a6 8c 3e bd 40 20 37 bd cd 74 39 be a4 0c 8d bd
       -0.04652085 -0.04470849 -0.18110962 -0.06887177
000050 28 ef 68 be e6 d6 d0 bc 83 45 54 be e6 e4 fc bd
       -0.22747481 -0.025493097 -0.20729642 -0.123483464
000060 c9 a5 3a 3c bc 51 ab bd 2f 02 20 be 3c 67 19 be
       0.011392065 -0.08365199 -0.15625833 -0.14980787
000070 32 51 87 bd 98 4c d9 bc f6 20 d6 bd 80 7b 47 be
       -0.06607284 -0.02652578 -0.104555055 -0.19480705
000080 d3 bf 14 be de 5d c3 bd aa 0f 3e bd 89 d0 66 bd
       -0.145263 -0.09539388 -0.046401657 -0.05635122
000090 cd 28 00 bb 1c 9d fb bd 01 34 f1 bd 2e 60 08 be
       -0.001955557 -0.122858256 -0.11777497 -0.1331794
0000a0 b0 fd a6 bd 27 4b 3d bd 6e 51 e0 bd 4c 8a 40 bc
       -0.08153856 -0.04621425 -0.109530315 -0.011751723
0000b0 06 aa b7 bd 35 43 72 bd 45 9a 66 bd 01 2a bc bd
       -0.08967976 -0.059146125 -0.056299467 -0.09187699
0000c0 12 93 20 be a3 f1 3d be 05 08 b5 bd 2a 89 60 bd
       -0.15681103 -0.18549208 -0.0883942 -0.05481831
0000d0 c2 78 71 bd 78 ad 90 bd 26 94 46 bd 41 2a f5 bd
       -0.058953054 -0.070643365 -0.04848113 -0.1197095
0000e0 c9 dd 51 bd e1 a1 77 be 2d 23 33 be 23 e1 04 bd
       -0.0512369 -0.24182846 -0.17493887 -0.03244127
0000f0 ac 7d 0e be 2f 9f f5 bd 27 86 4c bd d9 44 70 bc
       -0.13915128 -0.119932525 -0.049932625 -0.014664852

weight f4 [64, 1024]
000000 89 8d 12 3d 48 af f1 bc 94 f5 24 bd a5 92 70 bc
       0.03577951 -0.029502526 -0.040273264 -0.0146834
000010 ed c6 ef bb 91 76 1b 3d 76 17 42 bc 8d 55 b1 3a
       -0.007317415 0.03795487 -0.011846414 0.0013529524
000020 03 fc 96 bd 36 2d 1e bd b2 db 9b bc 28 96 0a 3d
       -0.07372286 -0.038617335 -0.019025657 0.033834606
000030 83 46 2d bd 77 32 28 bd 38 98 32 3d c0 b1 9d 3d
       -0.042303573 -0.041063752 0.0436022 0.07699919
000040 33 e5 8d 3c 2a ce 3a 3d 8e 6a 42 3d af da 62 bc
       0.017321205 0.04560677 0.0474649 -0.013846084
000050 00 db 3e bc 2d 81 31 3c eb 13 66 3c 66 57 19 bc
       -0.011648893 0.010834021 0.014042835 -0.009359216
000060 6b 5a a7 3d 80 c5 41 3d d0 63 9b 3d e1 bd e5 bb
       0.08171543 0.04730749 0.07587397 -0.0070111607
000070 ed 81 55 3d 8c 0a 43 3d 36 0f 03 3d 95 78 d2 bc
       0.05212586 0.04761748 0.03199693 -0.025692264
000080 15 56 a8 bc 5e 91 8b 3d e2 b5 64 bc 58 23 a1 3c
       -0.02054886 0.06814836 -0.01395938 0.019670174
000090 1f b8 8c 3c 16 ac bd bc 6f 62 fd 3c 49 ad cc bc
       0.01717764 -0.023153346 0.030930726 -0.024984973
0000a0 e2 53 e9 3c 29 97 d4 bb 18 72 24 3d b5 e4 2b 3d
       0.028482381 -0.0064877463 0.04014787 0.04196616
0000b0 9d 61 19 bc 6e d5 d7 bd 30 fd c5 bc 32 99 66 bc
       -0.009361652 -0.10538755 -0.02416858 -0.014074611
0000c0 8f ed 40 ba a1 38 4a bd fa 08 c5 bd 1d b6 ca bc
       -0.0007359618 -0.04937041 -0.09620853 -0.024745042
0000d0 1a 89 9e 3b 29 14 a6 bd 1c c7 7b bc 1f fc 43 3d
       0.004838121 -0.08109314 -0.015367296 0.047847863
0000e0 90 30 ad 3c 61 65 26 3d 88 6f 29 3d 3f 03 3b 3d
       0.02114132 0.040624026 0.04136613 0.045657393
0000f0 56 a5 19 bd 78 ba fa 3c f8 ac f7 3c 80 79 96 3c
       -0.037511192 0.030606493 0.030233845 0.018368483
000100 ff 40 d0 3c 79 e9 ce bb ab 4a f3 3d 2c 41 ac 3c
       0.025421618 -0.006314453 0.11879476 0.02102717
000110 5f 77 45 3d 3c 9f 1e 3d d4 14 c9 bc 34 d4 bd 3c
       0.048209544 0.038726076 -0.024546064 0.023172475
000120 92 16 19 3d 23 87 2d 3d 1d 0e 10 bc 06 11 9a bc
       0.03737504 0.042365205 -0.008792427 -0.018806946
000130 6c 74 55 3d e9 89 ad 3c fc 92 41 3d 43 16 96 b9
       0.05211298 0.021183925 0.047259316 -0.00028626816
000140 59 e2 3b 3d ce be 68 bc be fc 64 bd 9d 03 7e 3c
       0.04587016 -0.014205648 -0.055905096 0.015503791
000150 ec 40 c8 bc a1 1d 66 bd a0 f7 74 bd 21 7b 41 3c
       -0.02444502 -0.0561806 -0.059806466 0.011809141
000160 30 d5 2a 3d 59 56 c2 3d 5f 92 e6 3b 53 11 60 3d
       0.041707218 0.09489126 0.0070364918 0.05470402
000170 27 03 4f 3d d0 c6 59 bc d5 26 33 3d a3 8b 04 3d
       0.050540116 -0.0132920295 0.043738205 0.03235973
000180 b0 2b 7d bc 81 e7 98 3c df e5 5e 3d dd 1f 32 bd
       -0.01545231 0.018665077 0.05441844 -0.04348742
000190 04 db 3d bd 3e c4 1d 3d 8b 7a 1c bc 39 04 e8 bb
       -0.046351448 0.03851723 -0.009550701 -0.0070805815
0001a0 1e 2b df bc 5b f4 15 bd 2f 4f 5b 3d 6b 43 a5 bd
       -0.02724224 -0.03660999 0.053542312 -0.080694996
0001b0 be 9b cc bc 22 fc c9 3d ae fd 52 3d 7e 52 09 3d
       -0.024976607 0.09862544 0.05151146 0.033525936
0001c0 85 5c 8c 3a 41 8d d5 3a 1b 45 30 bd 3b eb 1d 3c
       0.0010708725 0.0016292707 -0.043034654 0.009638603
0001d0 82 51 c4 bc cd 53 72 3d b2 60 ca 3c 7d 5f 8b 3c
       -0.023964647 0.05916195 0.024704311 0.017013306
0001e0 5b 9d 0a bd 2f cb 69 bc 60 66 85 3c 52 2f 0e 3d
       -0.033841472 -0.014269634 0.016284168 0.034713097
0001f0 10 16 b3 bd 13 29 6d bc d0 6e 86 3c 0b f8 5a bd
       -0.087444425 -0.014475125 0.016410261 -0.05345921
000200 b7 f4 b1 3c 0d 1d 5b 3c 87 7a 84 3d 16 73 97 3d
       0.021723134 0.013373625 0.06468683 0.07394998
000210 18 a3 8a 3d ec 2e 47 3d d7 8d 5a 3d d0 c7 02 3d
       0.06769389 0.048628733 0.053357925 0.031928837
000220 14 d1 ba 3c a9 88 a3 ba 8b 77 13 3d 19 bb 7e 3d
       0.022804774 -0.0012476641 0.036002677 0.06219015
000230 99 e6 8c bb 1d 7d 11 bd 70 ec 99 3c 73 7d 34 bc
       -0.0042999503 -0.035519708 0.0187895 -0.011016238
000240 73 6a b5 bb d0 ab ce bc e2 f0 92 bb 01 7a 7a bc
       -0.0055363714 -0.025228411 -0.004484282 -0.015287877
000250 3b 6f 07 bc 44 9b eb bc 40 86 0a 3c 6f fd b5 bc
       -0.0082662655 -0.02876056 0.008454859 -0.022215573
000260 2d 4a cc 3b 89 d7 58 bd ab 88 d0 3c 0b 28 51 bd
       0.0062344284 -0.052939925 0.025455793 -0.05106358
000270 7d d2 a7 3d 26 6a 5b bd 14 ab 49 bc 7c 8d 39 3b
       0.08194444 -0.053568028 -0.012308855 0.002831309
000280 3b cf d9 3b 64 6d c7 3d ff 3c 9d 3d 93 0b 3d bd
       0.0066470183 0.097376615 0.0767765 -0.046153616
000290 1b 44 53 3d ea 56 bd bc 00 b6 9f bc 23 15 a1 bc
       0.051578622 -0.023112733 -0.019495964 -0.0196634
0002a0 33 fd 1e bc 2b ea d6 3c 82 53 9f 3d e4 3f a2 bc
       -0.009703922 0.026234707 0.077796 -0.019805856
0002b0 a1 f8 d3 3c 1e 4b bb bd 86 0d 7b bd 3b db 07 bc
       0.025875391 -0.09145187 -0.061292194 -0.008292015
0002c0 ed d1 ca 3c f4 59 8d 3b 58 33 a2 bc 10 1d 04 3d
       0.024758304 0.0043137018 -0.019799873 0.03225428
0002d0 60 db 9e 3d 98 5a 51 b9 13 59 1d 3d 7b 00 81 bd
       0.07756686 -0.00019965542 0.038415026 -0.0629892
0002e0 b1 7b c4 bd 7e 15 45 bd ca 4c a4 bd bb 0a d4 bc
       -0.09593905 -0.0481162 -0.08022459 -0.025884023
0002f0 23 b4 49 3c 75 16 d4 bc c2 57 ef ba b5 c4 ba bd
       0.012311014 -0.025889615 -0.0018260407 -0.0911955
000300 2e f1 cb 3c ef 7d 13 3d 8d 56 d7 3c e3 f3 86 3d
       0.024895277 0.03600877 0.026286388 0.065894864
000310 da ba 24 3d e4 83 58 3d b4 91 17 3d f2 18 03 3d
       0.040217258 0.052860156 0.037004188 0.03200621
000320 2d ec 67 3d c7 04 6d 3d e2 69 0b 3d 32 b0 68 bc
       0.05662172 0.057865884 0.034036525 -0.0142021645
000330 f8 c3 1f bd 7e 1c 6e 3c be ad 65 ba ed ac f1 bd
       -0.03900525 0.01453316 -0.00087615463 -0.11800561
000340 ea b7 4d bc fd 23 80 bd f5 a4 91 bd fb d3 d6 ba
       -0.012556056 -0.06256864 -0.07111541 -0.0016390079
000350 58 e0 06 3d 84 a3 07 bd a3 fe e5 bb 42 73 ba 3d
       0.032928795 -0.033114925 -0.0070188805 0.09104015
000360 ee 75 9f 3d e5 b4 c1 bc b2 d8 74 bc 29 39 f8 3d
       0.07786165 -0.023645828 -0.014944242 0.121202774
000370 44 21 b3 3b fb 6d 35 3d a9 44 9c 3c f5 36 bd 3d
       0.005466612 0.04429434 0.019075708 0.09238998
000380 d5 0e 24 bc 59 68 cd bc 1e d7 d8 bc 20 10 cb bb
       -0.010013302 -0.02507417 -0.026469763 -0.0061969906
000390 76 e6 8d bd 7e 67 50 bc 8c 74 62 bd cc d8 99 bd
       -0.069287226 -0.012719987 -0.05528693 -0.07512054
0003a0 89 55 57 bc af 51 6b bd 0b a8 35 39 61 25 63 3c
       -0.013142952 -0.057450946 0.00017324106 0.013863892
0003b0 57 94 a0 3c 5d 45 c8 bc d0 b4 eb 3c 05 04 5c 3b
       0.019601984 -0.024447137 0.028772742 0.0033571732
0003c0 c4 8b 17 bd 72 49 28 bc 77 d1 16 3d 8b 1f 3c bc
       -0.036998525 -0.010271417 0.036820855 -0.01148213
0003d0 f9 8b 57 bd a4 6e 0b 3d af fb 80 3d c8 2d 27 bd
       -0.052623723 0.034041062 0.06298005 -0.040815145
0003e0 85 ee 23 bd 19 93 84 bd 88 f5 87 bc a8 ba 05 bd
       -0.04002239 -0.06473369 -0.01659657 -0.032648712
0003f0 80 13 32 bd 2f 62 4e bd 9e c4 40 3d 70 ac 06 bc
       -0.043475628 -0.050386604 0.04706251 -0.008219823

bias f4 [64]
000000 5c 32 35 3c 8e d4 d8 bb d4 d8 e7 3c e4 01 fb bc
       0.01105937 -0.0066171354 0.028301634 -0.03064055
000010 3a d1 04 bb 5e cc 02 bc f4 4c 6e bd 43 bb 28 bd
       -0.002026631 -0.007983295 -0.058178857 -0.04119421
000020 17 89 3d bc 13 34 33 bc be 78 4e 3d b9 a6 b4 bc
       -0.011568329 -0.010937708 0.050408117 -0.022052156
000030 8c 8d 81 bc 8a 9b ae bb ff c5 83 3d 32 52 09 3d
       -0.015814565 -0.0053286003 0.06434249 0.033525653
000040 c4 34 54 bd 9c 18 1c bd 61 c2 3d bd d0 6b 28 bd
       -0.051808134 -0.038109407 -0.046327952 -0.041118443
000050 73 08 14 bc 7e 75 d0 ba e1 2d 57 bd 6a 6a 16 bd
       -0.009035218 -0.0015904156 -0.052533988 -0.036722578
000060 fd 10 cc 3c 49 82 49 bc ec 10 ac 3c 16 00 05 bd
       0.024910444 -0.012299129 0.021004163 -0.032470785
000070 cf c5 33 bd 85 99 0a bc 47 ca ba 3d 44 fc 53 3c
       -0.043889817 -0.0084594535 0.091206126 0.012938563
000080 6b 68 f6 3b 7b 2d 29 3c e2 79 6d 3d 0c 37 71 3d
       0.007519772 0.010325785 0.057977565 0.058890387
000090 ac 3c 94 3d f4 b3 d1 bc a2 aa 13 3d 6b dc 33 3c
       0.07238135 -0.025598504 0.0360514 0.010977845
0000a0 01 a2 71 bc c7 80 1f 3d 62 ca 41 bd 4d 5d 38 bc
       -0.014748097 0.03894117 -0.047312148 -0.011252713
0000b0 48 bd 52 bd 97 af 95 bb 86 13 89 3c 8f 52 c4 3c
       -0.051450044 -0.004568051 0.016732942 0.023965148
0000c0 4f 2b b9 3d 35 18 54 bd 00 82 07 3d a0 e9 85 bb
       0.090414636 -0.051780898 0.033082962 -0.004086688
0000d0 ef 19 3e bd 08 59 7a 3d 21 f5 a7 bc bc 44 8b b9
       -0.04641145 0.061120063 -0.020502629 -0.00026563357
0000e0 d4 00 61 bc 27 28 a9 3c df d3 04 bd a9 09 24 3d
       -0.013733108 0.020649029 -0.03242862 0.040048275
0000f0 e5 ce 11 3d f6 bd 43 bc ae a6 a6 bc 78 56 db 3c
       0.0355977 -0.011947146 -0.020343151 0.02677463

weight f4 [10, 64]
000000 f9 72 8f be 60 04 0b bd 0b 2e c5 3b c1 45 fa 3d
       -0.28017405 -0.03393972 0.0060174516 0.12220336
000010 32 66 9f be c4 4f af bd d3 25 cf 3d 4f 98 37 3e
       -0.31132656 -0.08560136 0.10114636 0.17929195
000020 5d 50 4f be 6c 9e 19 3d be 80 6c 3e 4a a3 f5 3d
       -0.202455 0.0375046 0.23095986 0.119940355
000030 eb 05 ed 3d d8 81 9a 3e 0b 46 80 be 48 45 cc 3d
       0.115733944 0.30177188 -0.2505344 0.09974152
000040 4b bd 51 3e 63 00 4c be 52 7d 3e be 6d 66 9b 3e
       0.20482366 -0.19922023 -0.18602493 0.30351582
000050 ec f0 2d 3e 36 4d 2d 3c 3a ca ac 3e 90 0f 69 3c
       0.16986436 0.010577491 0.33748037 0.014224902
000060 81 17 b6 bd 38 06 ae bd ab d0 a4 3e 54 05 fa bd
       -0.08891202 -0.0849728 0.3219045 -0.122080475
000070 9a 11 8d be 47 da 7a 3e 8a b3 93 be c2 72 60 3e
       -0.2755249 0.24497329 -0.28847915 0.21918777
000080 f5 38 be be 50 02 b8 3e be 78 74 3e 66 52 9e be
       -0.3715283 0.35939264 0.23874184 -0.3092224
000090 47 5b fe bd 47 67 77 be 62 32 5b 3e 5e 61 54 bd
       -0.124197535 -0.24160491 0.21405938 -0.05185067
0000a0 35 31 2d 3e ca 47 89 be 11 cd 6a be ca 4c 2c bd
       0.16913302 -0.26812583 -0.22929789 -0.04206542
0000b0 19 0b 1f 3e f3 e3 87 3e e2 3b ab 3e 37 3d 92 be
       0.15531577 0.265411 0.33444124 -0.28562328
0000c0 5b b4 a3 bd da 2b 96 3d fe 5d b2 be f5 8b 10 be
       -0.079933845 0.07332583 -0.34837335 -0.1411589
0000d0 4d 94 c3 bc 14 16 3f bd 8f 41 54 3e 42 97 15 be
       -0.023874426 -0.046651915 0.20728134 -0.14608482
0000e0 16 fc 0b 3e e6 84 f9 3d 0f 4a 0c 3e 4b 12 a3 be
       0.13670382 0.121835515 0.13700126 -0.31849894
0000f0 c6 40 b8 bd fe 20 12 be 80 b2 71 3e d7 a6 71 3e
       -0.089967296 -0.14270398 0.23603249 0.235988
000100 50 c7 d3 be ae 3a 81 be 4e e6 da 3e 74 80 95 3e
       -0.41363 -0.25240082 0.42753834 0.29199564
000110 09 f7 93 3e 4f 63 47 bd 78 e2 d3 3e ca 3f 19 be
       0.2889941 -0.048678692 0.4138372 -0.1496574
000120 f6 34 4b 3e e4 9f d4 be 57 4f 40 3b 57 3b 86 bd
       0.19844422 -0.41528237 0.0029344165 -0.06554287
000130 88 6b f0 bd b5 59 29 be 6b 30 09 bf 1f 79 db be
       -0.1173926 -0.16538127 -0.53589505 -0.42865846
000140 6e ee 24 bd 49 f5 ff bd 52 d4 67 3e 38 8b f6 bc
       -0.040266447 -0.12497956 0.22639588 -0.030095682
000150 d0 df a3 be f0 de e8 bd 9e 84 41 be 94 ee 82 be
       -0.32006693 -0.11370647 -0.18898246 -0.25572646
000160 e7 64 3a bb d0 8f 5e be f8 43 3b 3e 95 8c cd 3b
       -0.002844149 -0.21734548 0.18287647 0.006272862
000170 74 36 a2 bb 57 31 e3 be 59 27 a1 3e a2 72 ce be
       -0.004950339 -0.4437358 0.31475332 -0.40321833
000180 0f 26 f0 bd 71 20 99 be da a4 24 be d7 45 d8 3e
       -0.11726009 -0.29907563 -0.16078511 0.42240784
000190 37 2a 8a be c6 ca 1e bd f2 11 09 be 0a 31 d7 3e
       -0.26985332 -0.0387676 -0.13385752 0.420296
0001a0 0e a0 75 3e 5e 50 c3 bd 1d b3 82 bd 26 7f bd bd
       0.23986837 -0.09536813 -0.063818194 -0.09252767
0001b0 b5 02 7b be 40 4c 34 3d e6 3b 76 be 37 20 25 be
       -0.24512751 0.04401803 -0.24046287 -0.1612557
0001c0 1f e6 2e be f0 33 33 3e 3d 0a b5 3e 86 bf a2 be
       -0.17079972 0.17500281 0.35359374 -0.31786746
0001d0 4e 52 c1 bb 24 77 c8 bd e3 b3 ce 3e a1 57 b5 3d
       -0.005899704 -0.09788349 0.40371618 0.088546045
0001e0 e7 b4 ff be f6 9c 90 be cb ec 42 3e 9d 6c 99 be
       -0.49942705 -0.28244752 0.19035642 -0.29965678
0001f0 21 79 8a 3b eb 8b 86 3e 76 a2 a9 3e d1 41 ae 3e
       0.0042258655 0.26278624 0.3313176 0.3403459
000200 10 e3 e1 3e 34 fb 6d 3e de 2c 1a 3e a2 51 48 be
       0.44118547 0.23240358 0.15056178 -0.1956239
000210 df 3a 07 be 77 c9 7b be b6 d4 1e 3e c3 85 4d 3e
       -0.13206051 -0.24588571 0.1551083 0.20070557
000220 6a 1a 3b be 5a aa 50 3e c3 7d 28 be c0 b2 8c 3d
       -0.18271795 0.20377484 -0.16454224 0.06870031
000230 c2 b1 48 3e 2e 88 fb 3d ef 4f 68 bd 2e 8d a8 3e
       0.19599059 0.122818336 -0.056716856 0.32920212
000240 b5 15 56 3e e3 63 93 3e 3b 32 12 be d3 5a e0 3d
       0.20906718 0.28787145 -0.14276974 0.10954823
000250 5d 31 b1 bd 8d cb 92 be 38 a6 d8 3d 18 cc d4 bb
       -0.086519934 -0.28670922 0.10578579 -0.0064940564
000260 80 9d 95 3e 5b 05 b3 be 10 96 2b be c5 44 af bc
       0.29221725 -0.34965023 -0.16756463 -0.021395097
000270 10 11 98 bd 1f e5 a6 bd 1a 41 af be d3 1c c5 3e
       -0.074251294 -0.0814917 -0.34229356 0.38498554
000280 1f 72 6e be 78 6c 9e 3e cd b0 66 be c3 e9 a3 3e
       -0.23285721 0.3094213 -0.22528382 0.32014284
000290 3b 7e 88 3e 1a ef 32 3e b0 d7 c6 be 96 57 1d be
       0.26658806 0.17474023 -0.38836432 -0.15365443
0002a0 9a d9 25 be 71 71 73 3c 41 e1 c8 bd 11 94 33 be
       -0.1619629 0.0148585895 -0.09808589 -0.17536952
0002b0 e0 f3 d4 bd 94 a2 ff bd a7 8e 52 3e 00 a7 0f be
       -0.10398078 -0.12482181 0.2056223 -0.14028549
0002c0 bc 8c ba 3d ef bb 10 3e 0f aa 7e be 74 b3 15 be
       0.09108874 0.14134191 -0.2486956 -0.14619237
0002d0 78 51 88 3e 04 40 41 bc a9 ad 95 be 60 99 0a 3e
       0.26624656 -0.011795048 -0.29234055 0.1353507
0002e0 b6 20 95 3e b0 bb cc bd 8f 2d f1 bd f3 a4 a8 3e
       0.2912652 -0.09996736 -0.11776268 0.32938346
0002f0 26 00 a8 be fe b5 67 3e 00 47 25 3e 16 89 43 be
       -0.32812613 0.22628018 0.16140366 -0.19095263
000300 0e 17 70 3e bb 66 04 3e 67 63 47 be 2c bf 44 be
       0.23446295 0.12929814 -0.19471513 -0.19213551
000310 70 da ae bc 8a 6a 24 3d b4 33 d7 bd ba f9 b4 be
       -0.021344393 0.040140666 -0.105079085 -0.35346776
000320 8f 5c 66 3e 07 2d 51 3e 03 2f 82 be 5d d4 46 bd
       0.22496246 0.20427333 -0.25426492 -0.04854237
000330 8f af 25 3d 47 88 c0 be 89 fa 90 3d 1b f9 b7 bd
       0.04045063 -0.3760397 0.07079036 -0.0898306
000340 6c 3e cd bd 49 68 17 3e f8 2e 51 be 50 2f 64 3d
       -0.10021672 0.14785875 -0.20428073 0.055709183
000350 9d 56 33 3e 8d 0c 19 3e 23 00 a0 3e 9e 12 6a 3e
       0.17513509 0.14946194 0.31250104 0.22858664
000360 ae e4 87 be 5a 19 61 3e a2 28 46 3e 53 97 73 be
       -0.26541656 0.21982327 0.19351438 -0.23788194
000370 62 6f 11 3d 21 04 80 3d 12 26 50 3e e8 ad 07 bd
       0.035506614 0.062507875 0.20327023 -0.033124834
000380 43 21 e5 bd f0 f1 87 3d 50 35 62 bd 9d 47 72 3d
       -0.11187985 0.06637943 -0.055226624 0.059150327
000390 01 a3 69 be 4e ee 58 3e 39 02 6c be ae 71 2f 3d
       -0.22816087 0.21184656 -0.23047723 0.042833023
0003a0 65 0f 02 be 85 8e e2 3d 5c 0b 52 3e 8e 9d be bd
       -0.12701185 0.1106234 0.20512146 -0.09307395
0003b0 78 78 e7 bd c3 90 f1 3c 5d 1e 00 3e 9a d3 74 3e
       -0.113022745 0.029487973 0.12511583 0.23908845
0003c0 bf 72 aa 3e e2 b2 34 be ad 3a 8e 3e 21 17 05 be
       0.3329067 -0.17646363 0.2777914 -0.12997104
0003d0 45 9b 9b 3c c8 20 49 be 25 88 ba 3d 3b b0 a8 3d
       0.018994937 -0.19641411 0.09107999 0.08236738
0003e0 5f 02 c6 3d 9e 32 6c 3e b4 8f cc be 8f f7 35 3e
       0.09668421 0.23066184 -0.39953387 0.17770217
0003f0 20 d6 25 ba af 8f 05 3e c3 69 56 3e c2 ab e6 3d
       -0.00063261576 0.13043092 0.20938782 0.11263229

bias f4 [10]
000000 e0 07 f3 bd d8 8b b9 bd 0c 00 b5 3b 5f ec 5f 3d
       -0.118667364 -0.09059876 0.005523687 0.05466878
000010 1c f9 3c 3e 6a 2d ab bd b1 f1 d8 3d 2d 5f 2f bd
       0.18454403 -0.083582714 0.10592974 -0.042815376
000020 d9 96 da bd 3f cb 91 3c
       -0.10673303 0.01779711
